网络/Data_Backup/Default/optimization_guide_prediction_model_downloads/ab4e4793-d84d-4091-94ea-2eca8fe50d8e/model.tflite (tflite, 67216 bytes, 5 tensors)

dnn/hiddenlayer_1/bias/part_0 f4 [64]
-0.04036766 -0.026049107 -0.03862071 -0.01763146 -0.06514656 0.1376929 0.041037567 0.0060583036
0.0004548249 0.09839999 -0.005971734 -0.025579065 -0.05912277 0.0049501844 0.0075007905 -0.043152712
0.114860445 0.08115203 -0.0045550894 -0.0015841033 0.022074915 -0.032946367 -0.089770645 0.02968585
0.012542957 -0.046577755 0.15723035 -0.04261654 0.14978923 0.004175715 -0.0647954 -0.099800386
0.08975187 -0.0046083652 -0.023142993 -0.02578812 0.06679267 0.007229912 -0.031499125 -0.039997883
-0.025670778 0.036443982 -0.03417764 -0.062886834 0.024189018 0.044717476 -0.0016481121 0.06674564
0.12148771 -0.10252278 0.07104505 -0.011698971 -0.033460252 -0.04445495 0.08958789 0.044425398
-0.04801691 -0.094092585 -0.049887594 -0.02902576 0.0090854755 0.13923182 -0.037539665 -0.07352494
00000000: 8f58 25bd f064 d5bc c030 1ebd da6f 90bc
00000010: 8f6b 85bd 5eff 0c3e 0217 283d bc84 c63b
00000020: 9175 ee39 ef85 c93d 89ae c3bb 308b d1bc
00000030: b82a 72bd 2835 a23b 31c9 f53b e6c0 30bd
00000040: f43b eb3d 0933 a63d dc42 95bb b0a1 cfba
00000050: 74d6 b43c c5f2 06bd acd9 b7bd bd2f f33c
00000060: fa80 4d3c 51c8 3ebd fe00 213e ae8e 2ebd
00000070: 5962 193e 70d4 883b 73b3 84bd 2564 ccbd
00000080: d4cf b73d c501 97bb 6096 bdbc 9c41 d3bc
00000090: 98ca 883d e6e8 ec3b 3a05 01bd d2d4 23bd
000000a0: 864b d2bc 4946 153d dafd 0bbd d0ca 80bd
000000b0: 0c28 c63c ac29 373d 7705 d8ba f0b1 883d
000000c0: 8cce f83d 77f7 d1bd 1180 913d 0aad 3fbc
000000d0: 9e0d 09bd 6516 36bd db79 b73d 68f7 353d
000000e0: 61ad 44bd 9db3 c0bd ef56 4cbd 6ec7 edbc
000000f0: 3fdb 143c c992 0e3e 31c3 19bd 3e94 96bd

dnn/hiddenlayer_0/bias/part_0 f4 [128]
0.07811443 0.03569427 0.009202924 -0.05586937 -0.060551714 0.07055733 0.082396604 -0.05236563
-0.01700525 0.06146682 -0.029072579 0.043709572 0.009025554 0.0051573757 0.073701784 -0.030313462
0.05258658 0.09897441 0.026295744 0.0008020658 0.039026897 0.013836542 -0.02572613 -0.1269841
-0.009253287 -0.001135432 -0.0149644725 -0.048119154 0.01336885 -0.037862085 0.066723086 -0.08308178
-0.024736442 -0.0023675223 -0.13330325 -0.028797098 -0.09464493 0.09858785 0.06928723 -0.019576134
-0.0041790586 0.010917801 0.0001661333 0.071049765 -0.039191324 -0.13612412 0.01214309 0.00988442
-0.0005063021 0.039907612 0.045950003 -0.104274444 0.01847036 -0.0070181857 0.00025376352 0.0829001
0.012016632 -0.04389209 -0.014838972 -0.016158173 0.06934351 0.031801615 0.06385116 0.067635156
-0.039119687 -0.082480304 -0.041824475 0.0048121624 -0.017228076 -0.029901484 0.016251847 0.047165204
0.027484883 -0.021866264 0.10444307 -0.0026233706 -0.0027944879 -0.020027911 0.0027917505 0.055549756
-0.0441531 0.010906445 0.13483754 -0.030811729 -0.025349211 -0.039801583 0.026116129 -0.006960783
0.06888171 0.058466103 -0.0037994394 -0.06314784 0.043388415 -0.0642067 -0.021431345 0.050519925
0.07361383 0.03169929 0.047642026 -0.06508773 -0.038451493 0.038027145 0.053457387 0.10353428
0.016417759 0.029023685 0.022913592 -0.0014679714 0.027666202 0.051234398 -0.029050348 0.019528683
-0.058060225 -0.046379205 0.046012785 -0.05427722 0.06640765 -0.052395854 -0.012117636 0.07360238
-0.03448383 0.0036552872 -0.020594988 -0.08924674 0.08194061 -0.024427157 -0.011564893 0.05629805
00000000: 75fa 9f3d 2834 123d dcc7 163c 48d7 64bd
00000010: 1305 78bd 5d80 903d 8dbf a83d 587d 56bd
00000020: 984e 8bbc a2c4 7b3d 9e29 eebc cf08 333d
00000030: ebdf 133c 34ff a83b f6f0 963d f053 f8bc
00000040: 0765 573d 18b3 ca3d 2c6a d73c ba41 523a
00000050: abda 1f3d aab2 623c 9bbf d2bc 1f08 02be
00000060: 199b 17bc c7d2 94ba 8c2d 75bc 9718 45bd
00000070: 0509 5b3c 4615 1bbd 1da6 883d c826 aabd
00000080: 14a4 cabc 6f28 1bbb a680 08be e4e7 ebbc
00000090: 33d5 c1bd 6de8 c93d 77e6 8d3d 215e a0bc
000000a0: 7cf0 88bb 94e0 323c 1134 2e39 8a82 913d
000000b0: 1587 20bd 1f64 0bbe d0f3 463c 43f2 213c
000000c0: 5cb9 04ba 2a76 233d 1236 3c3d d78d d5bd
000000d0: 274f 973c cff8 e5bb 900b 8539 87c7 a93d
000000e0: 68e1 443c 31c8 33bd 291f 73bc 255e 84bc
000000f0: f803 8e3d 6942 023d 66c4 823d 4d84 8a3d
00000100: f73b 20bd 6feb a8bd 2450 2bbd 58af 9d3b
00000110: e521 8dbc f5f3 f4bc 9822 853c 4d30 413d
00000120: fa27 e13c e120 b3bc 40e6 d53d dbec 2bbb
00000130: ba23 37bb 9311 a4bc cdf5 363b 2488 633d
00000140: e2d9 34bd f2b0 323c da12 0a3e e168 fcbc
00000150: 26a9 cfbc fc06 23bd 7ef1 d53c 4817 e4bb
00000160: db11 8d3d 277a 6f3d 0400 79bb a853 81bd
00000170: 0db8 313d cd7e 83bd ca90 afbc fbed 4e3d
00000180: d9c2 963d 1dd7 013d 4924 433d b74c 85bd
00000190: 507f 1dbd 5ac2 1b3d 22f6 5a3d c809 d43d
000001a0: 897e 863c 14c3 ed3c 49b5 bb3c f268 c0ba
000001b0: 3ba4 e23c 29db 513d fffa edbc 9efa 9f3c
000001c0: 8fd0 6dbd 1ff8 3dbd e777 3c3d ca51 5ebd
000001d0: bc00 883d 099d 56bd 0d89 46bc d8bc 963d
000001e0: eb3e 0dbd 8b8d 6f3b d2b6 a8bc ffc6 b6bd
000001f0: 7bd0 a73d 761b c8bc ad7a 3dbc c998 663d

dnn/hiddenlayer_0/MatMul f4 [128, 12]
-0.27189177 -0.037973445 -0.14650537 0.010475189 -0.14884292 0.010430097 -0.07657032 -0.1643862
-0.12292536 -0.010901643 -0.093230754 -0.2602572 -0.12022282 0.05496527 -0.10594878 -0.076520674
-0.07289483 -0.06827312 0.08315998 0.07651169 -0.05535031 0.003983595 0.32310984 -0.1699294
0.22985083 -0.17140278 -0.102148816 -0.2004876 -0.009690388 -0.083844796 0.08251973 0.18035984
-0.13079046 -0.048082434 0.059694733 0.1298901 0.15524863 -0.06375028 -0.117205925 0.10341335
-0.048575073 0.17739674 -0.1908001 -0.038980115 0.027573273 0.3004202 0.18543792 -0.052645463
0.13231494 -0.12588857 0.11976097 0.21626393 -0.13479646 -0.07912842 -0.09169256 -0.053760502
-0.19478951 0.21121591 -0.13475111 -0.04479083 -0.10606118 -0.07967191 -0.098617 0.090495296
-0.07865465 -0.073786564 0.023237187 -0.15261042 -0.058504447 -0.12491277 -0.010846016 -0.21073842
0.022262918 0.055256635 -0.072245434 -0.10025183 -0.06733385 0.16285129 -0.12192542 -0.017021488
0.13117568 -0.0026013728 0.25906423 -0.108247675 0.18074615 -0.06938895 -0.22000796 0.010200399
0.046280798 0.010521046 -0.23931627 -0.014679667 0.15079942 -0.011972232 0.013673407 -0.035235405
-0.13300318 -0.024539508 -0.036455493 -0.12473041 -0.10695198 -0.08397236 0.19097249 -0.049225066
0.14832048 0.014660182 0.014220036 -0.19787233 -0.25011942 0.042739548 -0.2205512 0.107703544
0.16749118 0.114960305 -0.03275824 -0.08025592 0.1772982 -0.033287045 -0.09542141 -0.22699511
-0.15135044 -0.1451211 0.09238119 0.0063119456 0.20096461 -0.13210757 0.032311987 -0.13804579
0.1547444 -0.14555141 -0.14991584 0.058004312 -0.054212745 0.21543653 -0.04370943 0.16507623
0.00853453 0.14791767 -0.098730825 0.10703178 0.06534779 0.07612059 0.1589498 0.15183917
-0.020209508 -0.14736305 -0.095051184 -0.16441166 -0.24651635 -0.18772677 -0.006898282 0.20659651
0.051623605 -0.04840657 -0.008368804 0.087213576 -0.28105822 -0.16501796 0.19746901 0.18396926
0.12984061 -0.071319275 -0.016737817 0.08377335 -0.17787571 -0.047531042 0.016562905 0.14923944
0.023002828 -0.17225175 -0.052829638 0.17059588 -0.13262582 0.028669605 0.02127941 0.08042651
-0.19671588 -0.1080709 0.011514783 -0.0062677464 0.18578723 0.16794991 -0.20146629 0.092737116
0.0042845253 -0.18366513 -0.24986903 -0.14394207 0.124635145 -0.107921824 -0.01731376 0.16021511
-0.13281754 0.11118981 0.045240574 -0.20892502 -0.11204273 -0.047359206 0.07516806 0.13886723
-0.25099337 -0.010745425 0.22224386 0.17105272 -0.066448696 -0.20641212 -0.1445047 -0.07786597
-0.114050515 0.008284548 -0.058891397 0.16224825 -0.0756748 0.19874069 -0.11512322 -0.111160964
-0.014175608 -0.042184863 0.19735934 0.04814639 -0.18387844 -0.16857338 -0.13473226 -0.07742767
0.019670196 0.2735853 0.120604426 0.0070215343 -0.08551068 -0.08742835 0.09018464 -0.08311135
-0.11974297 0.14575201 -0.0020087739 -0.18829148 -0.0032917752 -0.18992323 -0.2117032 0.009090368
-0.20538816 0.23281953 -0.13392575 0.20496537 0.105355486 -0.06177664 0.1599628 0.018441292
0.07904446 -0.10262358 0.14019349 -0.0749248 -0.049525328 -0.19356667 0.14115927 0.116106376
00000000: 6635 8bbe 0b8a 1bbd 8105 16be 21a0 2b3c
00000010: 476a 18be ffe2 2a3c e6d0 9cbd db54 28be
00000020: 4bc0 fbbd ce9c 32bc c4ef bebd 6f40 85be
00000030: 6237 f6bd 4323 613d adfb d8bd dfb6 9cbd
00000040: e249 95bd c7d2 8bbd c84f aa3d 29b2 9c3d
00000050: 02b7 62bd d188 823b a76e a53e f901 2ebe
00000060: 045e 6b3e 3684 2fbe 6633 d1bd 9f4c 4dbe
00000070: 6fc4 1ebc d2b6 abbd 1b00 a93d 40b0 383e
00000080: efed 05be 16f2 44bd 7782 743d e901 053e
00000090: 7ff9 1e3e 828f 82bd a909 f0bd 61ca d33d
000000a0: a8f6 46bd 7ea7 353e 1a61 43be 9da9 1fbd
000000b0: 58e1 e13c add0 993e 70e3 3d3e c5a2 57bd
000000c0: 917d 073e efe8 00be 3d45 f53d 4b74 5d3e
000000d0: 1508 0abe 150e a2bd 4fc9 bbbd f933 5cbd
000000e0: e776 47be fc48 583e 32fc 09be 9776 37bd
000000f0: 9b36 d9bd 072b a3bd b6f7 c9bd 9955 b93d
00000100: b015 a1bd 691d 97bd ea5b be3c e845 1cbe
00000110: 5ca2 6fbd 44d2 ffbd 7db3 31bc d0cb 57be
00000120: b960 b63c c854 623d 6af5 93bd d550 cdbd
00000130: 54e6 89bd 7dc2 263e 09b4 f9bd a670 8bbc
00000140: eb52 063e cb7b 2abb 11a4 843e f5b0 ddbd
00000150: 8515 393e cb1b 8ebd c449 61be 931f 273c
00000160: ef90 3d3d 7760 2c3c 530f 75be fc82 70bc
00000170: 2a6b 1a3e 2e27 44bc 6d06 603c 0053 10bd
00000180: fc31 08be 1407 c9bc 5b52 15bd a872 ffbd
00000190: a409 dbbd b3f9 abbd 4b8e 433e 39a0 49bd
000001a0: 53e1 173e 4331 703c 27fb 683c 0b9f 4abe
000001b0: a70f 80be aa0f 2f3d 2cd8 61be ad93 dc3d
000001c0: cf82 2b3e 4f70 eb3d 812d 06bd 375d a4bd
000001d0: a98d 353e ff57 08bd 4d6c c3bd 6871 68be
000001e0: 9cfb 1abe a09a 14be 5932 bd3d 70d4 ce3b
000001f0: abc9 4d3e 3547 07be 9359 043d e05b 0dbe
00000200: 5175 1e3e 6e0b 15be 8a83 19be ee95 6d3d
00000210: 2f0e 5ebd 659b 5c3e a908 33bd be09 293e
00000220: 6ad4 0b3c bb77 173e 6333 cabd 7a33 db3d
00000230: 10d5 853d 1de5 9b3d bdc3 223e ba7b 1b3e
00000240: 698e a5bc 57e6 16be 32aa c2bd 885b 28be
00000250: c86e 7cbe 723b 40be fc0a e2bb 098e 533e
00000260: 4673 533d f845 46bd 4f1d 09bc 089d b23d
00000270: dde6 8fbe 78fa 28be 5135 4a3e 7062 3c3e
00000280: f0f4 043e d70f 92bd bf1d 89bc 5d91 ab3d
00000290: 0d25 36be e9af 42bd eeae 873c 39d2 183e
000002a0: 6d70 bc3c c362 30be e463 58bd b0b0 2e3e
000002b0: 10cf 07be 85dc ea3c 2852 ae3c a7b6 a43d
000002c0: e36f 49be 4754 ddbd 80a8 3c3c ab61 cdbb
000002d0: 023f 3e3e 10fb 2b3e 2e4d 4ebe f5ec bd3d
000002e0: 3465 8c3b b612 3cbe abdd 7fbe 8d65 13be
000002f0: b640 ff3d 1e06 ddbd 96d5 8dbc 6e0f 243e
00000300: 5201 08be 7cb7 e33d 2e4e 393d 71f0 55be
00000310: a976 e5bd bafb 41bd b6f1 993d 3633 0e3e
00000320: 3482 80be 940d 30bc e593 633e 7228 2f3e
00000330: 4116 88bd b35d 53be 0af9 13be 3278 9fbd
00000340: 5193 e9bd eabb 073c 1b38 71bd 6824 263e
00000350: 64fb 9abd ae82 4b3e b9c5 ebbd 5ca8 e3bd
00000360: cf40 68bc 09ca 2cbd 9118 4a3e 2635 453d
00000370: a14a 3cbe 809e 2cbe 41f7 09be 6692 9ebd
00000380: 6423 a13c 5f13 8c3e 74ff f63d e614 e63b
00000390: 3920 afbd a20d b3bd b9b2 b83d 4936 aabd
000003a0: cd3b f5bd 0440 153e a2a5 03bb 7bcf 40be
000003b0: d3ba 57bb 3c7b 42be b9c8 58be c4ef 143c
000003c0: 4651 52be 3e68 6e3e d523 09be 71e2 513e
000003d0: 9ec4 d73d 8109 7dbd 4acd 233e 3112 973c
000003e0: 10e2 a13d 502c d2bd e28e 0f3e 2c72 99bd
000003f0: 12db 4abd 5736 46be 0e8c 103e 2ec9 ed3d

dnn/hiddenlayer_1/MatMul f4 [64, 128]
0.10846431 0.06139662 0.011847797 0.1754399 0.031543635 -0.012303763 0.17541556 -0.17975238
0.079651855 -0.14405209 0.13303944 -0.020984057 -0.005014545 -0.119592674 -0.1206882 -0.21172912
-0.011109634 -0.047017936 -0.15835571 0.17231125 0.10980934 -0.0339871 -0.044706184 -0.011247717
0.04199213 -0.06974738 -0.13445166 -0.020743176 0.14149532 -0.033851333 -0.14624014 -0.08527346
0.14490613 0.005014382 0.12189536 -0.10897211 -0.015502295 -0.12560521 -0.13271181 0.05791598
0.020580586 0.14398725 0.092890024 0.029729264 0.19573776 0.040767547 0.07045165 0.1392089
0.00931138 -0.11137838 -0.024513697 -0.12195077 -0.14568333 0.046250556 -0.021859284 0.1503165
0.040621534 0.08881881 -0.056618534 -0.025008596 0.10669372 0.13696763 -0.09372993 0.017602434
-0.17885293 0.08577883 0.039680164 -0.1547561 -0.043404378 0.13678661 0.17255409 -0.13040176
-0.080123015 -0.08697379 -0.14130048 -0.12100367 0.08226852 0.09705506 0.08604787 -0.13887922
-0.12906964 0.054106995 -0.08576165 -0.11107373 0.10894341 0.124891 -0.122486494 -0.16721156
-0.11044347 0.17206949 -0.022957489 -0.057629056 -0.016590668 0.16130435 -0.038211327 0.036305245
-0.18482514 -0.069472946 -0.045933023 -0.079662874 -0.17349389 0.048055347 -0.027595337 0.13422458
-0.09693062 0.018393721 0.08544957 -0.026323467 0.0074350694 -0.13195647 -0.042834975 0.09409755
-0.030397922 0.072326444 -0.15794896 0.05543577 -0.120532446 -0.15336084 -0.00437521 -0.1448325
-0.15674132 0.055309024 -0.0024901673 -0.02244184 0.039914444 -0.15233488 0.09148875 -0.16074261
0.10224959 -0.051277712 -0.084761 0.004066317 0.007073166 0.014592647 -0.07550327 -0.09187428
-0.094693206 -0.1736618 -0.08331635 -0.010671039 -0.13186501 0.053326532 -0.03187386 0.11276142
-0.024637 -0.061075985 -0.003307571 0.08568442 0.05962599 0.11099033 -0.19940178 -0.08142542
-0.02757716 0.11706154 -0.05178223 -0.035785407 0.071170345 -0.07622842 -0.028380696 0.09282395
-0.12775886 -0.12516853 -0.15617369 -0.0379331 0.13832426 -0.07093924 -0.02163625 -0.13787356
-0.08446154 -0.12406318 -0.10037743 0.114872366 0.07945547 0.06424616 0.06975261 0.043338593
-0.04190114 0.038159236 0.11085596 0.116426215 -0.1074466 0.012411711 0.14439236 0.1642734
-0.027087316 0.12343265 0.14124355 -0.22405425 0.051603746 0.084205136 0.11221446 0.14790533
-0.1155898 -0.026798751 -0.09676295 -0.0707591 0.1585249 -0.15735039 0.02988858 -0.14734559
0.12171175 -0.12865233 0.02760518 0.15149984 0.008159494 -0.046204153 0.01751649 0.0927515
-0.040571306 0.14231658 -0.13782163 0.07710468 -0.17022151 -0.12519085 0.09707039 0.12919798
0.02465298 0.011714229 -0.17620668 -0.10355814 -0.03093556 0.047187496 0.16420618 -0.08380731
0.09270475 0.077917136 0.13922252 0.21450467 0.16442588 -0.071722984 0.1458733 0.010077081
-0.079085544 0.07076873 0.048153743 0.094280265 -0.17624393 -0.13403451 0.031920474 -0.08960569
0.1431646 0.09246937 0.0527734 -0.13527101 0.117419235 0.0011199033 0.18620631 0.059137993
-0.101173416 0.12293202 -0.15483782 -0.07431932 -0.045919828 0.02623319 -0.013982677 -0.08237466
00000000: 8922 de3d 067b 7b3d 431d 423c 84a6 333e
00000010: e633 013d b995 49bc 23a0 333e 0211 38be
00000020: 8320 a33d 6482 13be 7e3b 083e c2e6 abbc
00000030: 0d51 a4bb 01ed f4bd 602b f7bd 85cf 58be
00000040: 2f05 36bc e195 40bd 0028 22be 5c72 303e
00000050: b8e3 e03d 0f36 0bbd d51d 37bd 5848 38bc
00000060: f1ff 2b3d b7d7 8ebd b2ad 09be 98ed a9bc
00000070: 26e4 103e b2a7 0abd fabf 15be daa3 aebd
00000080: 4662 143e af4f a43b 46a4 f93d c52c dfbd
00000090: 57fd 7dbc a79e 00be 9be5 07be 4f39 6d3d
000000a0: 9e98 a83c 6571 133e 203d be3d c98a f33c
000000b0: 7b6f 483e dffb 263d f448 903d c78c 0e3e
000000c0: c28e 183c 591a e4bd f3d0 c8bc 53c1 f9bd
000000d0: 032e 15be 3971 3d3d 3e12 b3bc 92ec 193e
000000e0: c462 263d a3e6 b53d d6e8 67bd d4de ccbc
000000f0: 3d82 da3d 3e41 0c3e 7af5 bfbd fb32 903c
00000100: 3925 37be d0ac af3d ab87 223d 6278 1ebe
00000110: cac8 31bd ca11 0c3e 05b2 303e 0a88 05be
00000120: 8917 a4bd 501f b2bd 13b1 10be c6d0 f7bd
00000130: 667c a83d cec4 c63d de39 b03d 5b36 0ebe
00000140: d52a 04be 4c9f 5d3d cea3 afbd a07a e3bd
00000150: b91d df3d dac6 ff3d 33da fabd 8239 2bbe
00000160: 3030 e2bd fc32 303e 5811 bcbc 720c 6cbd
00000170: 27e9 87bc f82c 253e 7b83 1cbd cfb4 143d
00000180: cd42 3dbe d547 8ebd 4424 3cbd 4a26 a3bd
00000190: 62a8 31be afd5 443d 9e0f e2bc 2b72 093e
000001a0: 9083 c6bd 6eae 963c 2f00 af3d 50a4 d7bc
000001b0: e2a1 f33b 991f 07be ba73 2fbd 37b6 c03d
000001c0: 1005 f9bc e31f 943d 5fbd 21be 9e10 633d
000001d0: b7d9 f6bd a00a 1dbe ec5d 8fbb f94e 14be
000001e0: cc80 20be b78b 623d 1332 23bb f3d7 b7bc
000001f0: 547d 233d adfd 1bbe 745e bb3d b699 24be
00000200: 3c68 d13d 9408 52bd 2d97 adbd bd3e 853b
00000210: 04c6 e73b ff15 6f3c 75a1 9abd 9528 bcbd
00000220: 83ee c1bd 66d4 31be c3a1 aabd 95d5 2ebc
00000230: 9f07 07be ec6c 5a3d 2a8e 02bd 76ef e63d
00000240: 89d3 c9bc d02a 7abd d5c3 58bb 507b af3d
00000250: 623a 743d e64e e33d fb2f 4cbe 5fc2 a6bd
00000260: 7fe9 e1bc f6bd ef3d 9b19 54bd b893 12bd
00000270: c2c1 913d a51d 9cbd a27e e8bc 7c1a be3d
00000280: 38d3 02be 2e2c 00be ffeb 1fbe bd5f 1bbd
00000290: e0a4 0d3e 9848 91bd 813e b1bc ba2e 0dbe
000002a0: 2cfa acbd d614 febd af92 cdbd 3442 eb3d
000002b0: 8db9 a23d 7e93 833d 75da 8e3d cf83 313d
000002c0: 88a0 2bbd dc4c 1c3d 7308 e33d de70 ee3d
000002d0: f70c dcbd 7d5a 4b3c 97db 133e 4937 283e
000002e0: 38e6 ddbc 42ca fc3d 26a2 103e 7a6e 65be
000002f0: 735e 533d be73 ac3d b2d0 e53d 7f74 173e
00000300: 58ba ecbd 0e89 dbbc a72b c6bd 26ea 90bd
00000310: 5a54 223e 7620 21be e5d8 f43c c3e1 16be
00000320: 0344 f93d 70bd 03be 4224 e23c c622 1b3e
00000330: 66af 053c 9140 3dbd be7e 8f3c 80f4 bd3d
00000340: 192e 26bd 70bb 113e 1d21 0dbe 0fe9 9d3d
00000350: 8c4e 2ebe 0832 00be d7cc c63d 7a4c 043e
00000360: 0cf5 c93c 0aed 3f3c 866f 34be 4a16 d4bd
00000370: 926c fdbc ad47 413d aa25 283e 2ba3 abbd
00000380: fddb bd3d 0593 9f3d 5990 0e3e 1da7 5b3e
00000390: 425f 283e 80e3 92bd cf5f 153e 571a 253c
000003a0: 9af7 a1bd 32ef 903d dc3c 453d 0316 c13d
000003b0: 4a79 34be 5840 09be 0bbf 023d 3083 b7bd
000003c0: be99 123e 9560 bd3d ec28 583d 7c84 0abe
000003d0: 7f79 f03d b8c9 923a deac 3e3e ae3a 723d
000003e0: 0234 cfbd c8c3 fb3d ce8d 1ebe ba34 98bd
000003f0: 6e16 3cbd fde6 d63c 9917 65bc 0cb4 a8bd

dnn/logits/MatMul f4 [1, 64]
-0.20930158 -0.3125038 -0.023944493 -0.14902692 -0.16586977 0.36849985 0.07493694 0.026712352
-0.020431764 0.15330195 -0.004744641 0.14121978 -0.20033546 0.129263 0.079630785 -0.33488333
0.2860436 0.18497224 -0.106027134 0.027073292 0.109033786 -0.16952664 0.3327608 0.19433989
0.11408076 -0.3402242 0.35608858 -0.18137029 0.43889672 -0.016202725 -0.14114894 -0.23606622
0.36904046 0.0051055443 -0.17479305 0.09122462 0.14455765 -0.25832996 -0.25003982 -0.045271575
-0.045219384 0.12177493 -0.2007985 -0.09445281 0.07131863 0.22281711 -0.26622525 0.22045918
0.3462212 -0.27932867 0.27063993 -0.15168332 -0.016541325 -0.34330016 0.20567094 0.1678847
-0.26640993 -0.2469616 -0.23560856 -0.28135428 -0.16700293 0.37448907 -0.21563108 -0.17606546
00000000: 2753 56be 8000 a0be 3e27 c4bc 839a 18be
00000010: c4d9 29be 03ac bc3e 8a78 993d ddd3 da3c
00000020: 8460 a7bc 30fb 1c3e ef78 9bbb eb9b 103e
00000030: bd24 4dbe 855d 043e 7715 a33d d475 abbe
00000040: 4f74 923e 5d69 3d3e c124 d9bd cfc8 dd3c
00000050: 1b4d df3d 6498 2dbe a05f aa3e 0901 473e
00000060: 2ca3 e93d de31 aebe 3e51 b63e 22b9 39be
00000070: 12b7 e03e 94bb 84bc 5989 10be 58bb 71be
00000080: dff2 bc3e 694c a73b f3fc 32be f9d3 ba3d
00000090: ec06 143e d343 84be 3805 80be b06e 39bd
000000a0: f637 39bd 2265 f93d 1f9e 4dbe 7a70 c1bd
000000b0: 800f 923d 2b2a 643e ad4e 88be 0dc0 613e
000000c0: e843 b13e 2b04 8fbe 5191 8a3e df52 1bbe
000000d0: ac81 87bc 0ac5 afbe 679b 523e f7e9 2b3e
000000e0: e266 88be 80e3 7cbe 5f43 71be ab0d 90be
000000f0: d102 2bbe 08bd bf3e 65ce 5cbe 814a 34be
