网络/Data_Backup/Default/optimization_guide_prediction_model_downloads/70d595bb-cee4-41f9-bdf4-64f4cdf774d3/model.tflite (tflite, 67216 bytes, 5 tensors)

dnn/hiddenlayer_1/bias/part_0 f4 [64]
000000 d7 7c 7c bb 2b 77 06 bc b7 9a 93 3d 95 09 ba bc
       -0.0038526559 -0.008207123 0.07207244 -0.022709647
000010 23 23 0b 3c af 7d c7 bc 9f 1a af 3b 5b d4 69 3c
       0.008492264 -0.024351923 0.0053437497 0.014271821
000020 35 17 01 3d 5b 7c 8e bd a4 87 d3 bc b2 13 8b bd
       0.031516273 -0.06957313 -0.025821514 -0.06790866
000030 10 71 2c bd c0 01 76 bd dd d2 4b 3d d1 94 ba 3d
       -0.042100012 -0.060060263 0.04976164 0.09110416
000040 e1 68 68 bd fa b4 4a bd c3 23 61 3d 2b f2 70 3d
       -0.056740645 -0.049489 0.054965746 0.0588247
000050 cf 7e a4 bb 5e cc d4 3c 67 42 f4 bb d5 f7 6c 3d
       -0.0050199996 0.025976356 -0.007454205 0.05785354
000060 e4 84 0d bb 56 74 13 bd ff fa 36 3d 82 6b 0c 3d
       -0.0021594102 -0.03599962 0.044672962 0.034282215
000070 4e 32 a9 3b 79 d3 b1 bb 57 94 fd bc d6 91 d6 3d
       0.0051634675 -0.005426821 -0.030954523 0.10477035
000080 78 e8 93 bc 2f 1a 31 3c a0 62 3d bd 47 db 3f 3d
       -0.018055186 0.010809465 -0.046236634 0.04683998
000090 24 de e9 bb 08 77 ae 3d f3 27 d5 3c 1f 8f bb 3d
       -0.007137077 0.08518797 0.026020026 0.091581576
0000a0 e5 7e 28 bc 0e e5 78 bc 00 9e fb bc f9 1a 91 bd
       -0.01028416 -0.01519133 -0.030714989 -0.07085223
0000b0 58 97 8c bb 0c 22 a1 39 51 ab e7 bc 56 37 30 bd
       -0.0042905025 0.0003073368 -0.028279932 -0.043021522
0000c0 83 df de bb 67 fc a9 bd 49 f4 0d bc 81 2e 75 3c
       -0.006801547 -0.08300095 -0.008664199 0.014964701
0000d0 22 80 43 3d 33 b6 5e bd cc b3 dc 3d 4c 2a e3 3c
       0.04772962 -0.054372977 0.10776481 0.02773013
0000e0 45 5a 0e bd d9 3b 60 3d a4 1c c2 bc 0e 1a 24 3d
       -0.034754056 0.054744575 -0.023695298 0.04006391
0000f0 a3 0a c7 bc 7f 37 5d 3d a3 cc 88 bc 7c 25 43 bc
       -0.024297064 0.054008003 -0.01669914 -0.011910792

dnn/hiddenlayer_0/bias/part_0 f4 [128]
000000 e2 7e 99 3d b0 5a 9d 3d d5 c4 82 bb 05 ce d1 bd
       0.07494904 0.07683313 -0.0039907494 -0.10244373
000010 f2 f3 41 3c 29 7f 51 3d f8 be 89 bb 18 ef 59 3c
       0.011837946 0.05114666 -0.0042036735 0.013301633
000020 3c b8 74 bd 66 52 b1 bc f0 30 ac 3c 13 d1 b4 bc
       -0.059746012 -0.021645736 0.021019429 -0.02207235
000030 1d e2 77 bd 4b 85 f1 3d 78 24 a9 bd 7c ca b5 bc
       -0.060518373 0.11793002 -0.08258909 -0.022191279
000040 4b 3f 19 3d da ea 39 3d dd b5 9d bd ff 06 8d ba
       0.037413877 0.045389988 -0.07700703 -0.0010759531
000050 14 f2 c0 3c f7 9d 32 bd 29 ac e3 bc 72 93 55 3d
       0.023552932 -0.04360768 -0.027792053 0.052142568
000060 24 27 82 bd 89 e3 2c 3d 06 8a bc bc ca 58 9f 3c
       -0.06355122 0.042209182 -0.023015033 0.019451518
000070 3c dd e5 3c 81 09 67 3d 57 08 92 bd 21 34 af 3c
       0.028059594 0.056405548 -0.07130497 0.021387162
000080 29 92 6a 3d 45 c2 f5 bb d7 03 d8 bb 52 84 b4 bc
       0.057268295 -0.0074999654 -0.0065922546 -0.022035751
000090 61 31 70 3d 9c 17 79 bd db ef f1 bc 23 84 bf bd
       0.05864084 -0.06081353 -0.029533317 -0.09351375
0000a0 f2 75 3d bc b4 40 e5 3c b6 3f c8 3c 9e 96 10 bd
       -0.011563765 0.027984954 0.024444442 -0.03529989
0000b0 95 e9 93 bb 30 11 79 bd cb ae 8c bb c0 24 8d 3d
       -0.004513929 -0.060807407 -0.004293298 0.06891775
0000c0 fa b8 f3 bb 69 de ab 3d 20 fc da 3c 31 fd 6b bd
       -0.0074378224 0.08392031 0.02673155 -0.05761451
0000d0 62 ca 0d be a1 3b 83 3d 38 f2 ab bc d4 9d 18 bc
       -0.13846734 0.06407858 -0.020989522 -0.009314973
0000e0 90 60 54 bd 85 1b 8c bc ef b8 8e bd f9 ea ed bb
       -0.0518499 -0.017102966 -0.06968867 -0.007260677
0000f0 23 10 b6 3d 3b 1b 53 3d 29 f6 2c bd be 47 c1 3c
       0.088897966 0.05153964 -0.042226944 0.02359378
000100 d0 69 2a bd a9 76 95 bd a2 86 8a 3d 47 8c 72 bd
       -0.041604817 -0.07298023 0.067639604 -0.05921581
000110 b6 d4 2c 3d 5e 96 76 bd a3 82 9f 3d 74 f9 9c 3a
       0.042195044 -0.060201995 0.07788589 0.0011976198
000120 b1 ba ac bc b7 fe 09 ba 23 95 13 bd ad 40 f2 ba
       -0.021085115 -0.0005264091 -0.0360309 -0.001848241
000130 76 c5 98 3d 97 27 88 3b 73 9a 06 3d 98 be 21 3d
       0.07459538 0.00415511 0.032862138 0.039488405
000140 63 cf f7 bc e2 18 55 3c 6d 65 87 3d 0f 40 c9 bb
       -0.030250257 0.013006421 0.06611142 -0.0061416696
000150 06 17 07 bd 08 4f d0 bc c6 34 79 3c e0 be 5b bc
       -0.03298094 -0.02542831 0.015210336 -0.013412207
000160 11 e3 c4 3d fb c5 04 bc 8d b7 19 bd f1 3a 4d 3c
       0.09613622 -0.008103843 -0.037528563 0.01252626
000170 93 4a 82 3d ca 3c 12 bd 53 00 1b bb 28 2b 43 bd
       0.0636188 -0.035702504 -0.0023651316 -0.04764858
000180 ea ad 7a bc af 67 7e 3d 35 48 17 bd 2b 32 13 bd
       -0.015300253 0.0621106 -0.036934096 -0.035936516
000190 89 37 ae 3d ed 85 3a bc dc f8 14 3d 31 79 3e 3c
       0.08506686 -0.011384469 0.036370143 0.011625574
0001a0 6b 6b d6 bc a7 50 0c 3d a2 73 b4 3d d8 d5 5d 3d
       -0.026174268 0.034256604 0.08811118 0.054159015
0001b0 61 de d0 bd bb 83 87 3d a1 22 1a bd 24 14 c9 bd
       -0.101986654 0.066169225 -0.03763068 -0.09818295
0001c0 72 d3 ba 3c 2b 4c 3c 3d 2c 4b 95 bd 31 0c 1b 3d
       0.022805903 0.045971077 -0.072897285 0.037853424
0001d0 85 92 22 3d b3 3d 94 bd ae 0e dc bb f0 4f bc 3d
       0.039690513 -0.07238331 -0.006715617 0.09194934
0001e0 37 05 2c 3b 3a 15 8d 3d ed 95 4e bd 62 81 be 3c
       0.0026248225 0.06888814 -0.05043595 0.023255054
0001f0 05 ff d5 bd d3 d8 26 bd b5 4e 34 3c bf 82 a2 bc
       -0.10449032 -0.040734123 0.011005093 -0.019837735

dnn/hiddenlayer_0/MatMul f4 [128, 12]
000000 1d 79 55 bd 95 db 0a 3e f8 4b 0c 3e f1 9b 20 3e
       -0.052117456 0.13560326 0.13700855 0.15684487
000010 fc c3 59 3d 85 fc 8d 3d b4 08 83 bd 2b 51 6b bd
       0.05316542 0.0693293 -0.06398144 -0.057450455
000020 93 7c 3f 3e 1c 44 d5 bd 2b 97 7d bc 61 ee 4f 3e
       0.18699865 -0.104133815 -0.015477936 0.20305778
000030 fb 6a 17 bd 73 ff 9a bd 16 e3 32 3e bc 6b 11 be
       -0.03696726 -0.07568254 0.17469439 -0.14201254
000040 f5 54 8c 3d 30 4a b1 3d b8 be 60 3e ef 03 d8 bb
       0.06852142 0.08656728 0.21947753 -0.006592266
000050 43 7c fc bd f5 e5 fb 3d ef 95 fc bd 8c a1 17 be
       -0.123283885 0.1229972 -0.12333285 -0.14807719
000060 18 1a 13 3e 61 84 43 bb 5e 7f 4f bd b1 72 c6 3d
       0.14365423 -0.0029833543 -0.050658576 0.096898444
000070 f3 48 87 3d 68 5a 85 3d ae f4 99 3d b0 3b 3a be
       0.06605711 0.06511384 0.07517372 -0.18186831
000080 0b 58 28 be 36 a9 50 3e e4 c4 4e bd fe 52 aa 3d
       -0.16439836 0.20377049 -0.05048074 0.08316611
000090 6b 16 63 be 22 fb cb 3d f3 b4 30 bd 0f 58 e3 3c
       -0.2217652 0.09960009 -0.043141317 0.02775195
0000a0 0d 2e e7 bd d9 0e 11 3e 5a c3 54 ba 65 f5 23 3e
       -0.1128808 0.1416582 -0.0008116268 0.1601158
0000b0 a7 1d 30 bb 3f a9 11 3e 0d b4 8b bc b8 13 29 3c
       -0.0026873143 0.14224719 -0.017053628 0.010319643
0000c0 de 38 c5 bc ae c0 a0 3d da 67 1b 3e 7a 60 4e bd
       -0.024074968 0.07849251 0.15176335 -0.050384976
0000d0 c4 01 3e 3e d2 5a 06 3d b6 3a f0 3d dd 30 9a 3d
       0.18555361 0.032801457 0.11729948 0.07528851
0000e0 71 9e 43 bb 68 84 95 bd cf aa 16 be cc 18 05 bc
       -0.0029849077 -0.07300645 -0.14713596 -0.008123588
0000f0 db 27 5e 3d 87 46 46 be 73 18 a0 bd 10 b6 6c bc
       0.054237228 -0.19362842 -0.07817163 -0.014447704
000100 f8 2b b2 3c 99 73 75 bc 7b 8c 2a be 9b e1 17 be
       0.021749482 -0.014981174 -0.16655152 -0.14832155
000110 7e 15 53 bc 84 af a0 3d 52 92 7e 3e 32 52 2f be
       -0.012883542 0.07845977 0.24860504 -0.17121199
000120 79 e9 af 3c 56 1e ca 3d 16 94 5d 3d ac 26 f1 bd
       0.021473633 0.09869067 0.054096304 -0.11774954
000130 cf 9e d9 bd ef f6 85 3d 4e 00 5f 3e 6a 13 6f 3e
       -0.106259935 0.065412395 0.2177746 0.2334725
000140 48 93 9f 3d 5a f6 d8 bc 0c 2a d7 bd c1 dc 6e be
       0.077917635 -0.026484657 -0.10506067 -0.23326398
000150 01 dd fa 3d ce 38 15 3e e5 b2 83 bd 6f 4a fd bd
       0.122491844 0.1457245 -0.06430606 -0.12367713
000160 73 98 96 3d 3b 5c 7e be 6f f9 81 3e 12 b3 4f bd
       0.07353296 -0.2483987 0.25385615 -0.050707884
000170 12 50 4e 3d c4 8a 9f bd df d8 b7 3d cf a2 5c be
       0.05036933 -0.07790139 0.08976912 -0.21546482
000180 b0 4a 66 be 85 6f 2d 3d f8 46 12 3e 42 0b 04 3e
       -0.22489429 0.04234268 0.14284885 0.1289492
000190 61 62 18 3e a3 8f 88 bd 03 0c cb 3c 0e aa 39 be
       0.14881279 -0.066680215 0.024786001 -0.18131277
0001a0 16 0f a5 bd 7b bd 53 3e 81 66 32 3c 95 36 86 be
       -0.08059518 0.2067775 0.010888697 -0.26213518
0001b0 15 df 43 3e 32 a5 e6 3c 93 4e f5 3d 3f cd e2 bc
       0.19128068 0.028154943 0.119778775 -0.02768576
0001c0 27 ad 1c 3e f5 67 24 3d 97 c9 7c be 75 b1 ac bd
       0.15300427 0.040138204 -0.24686275 -0.08432285
0001d0 e8 bb 09 3d b0 29 25 bd fc 86 38 3e 75 e6 13 be
       0.033626467 -0.04032296 0.18020242 -0.14443381
0001e0 3b 99 36 be c1 9c 9b bd 28 fa 75 be 96 48 23 be
       -0.1783189 -0.07598258 -0.24021208 -0.15945658
0001f0 2b c9 21 3e 6d 12 98 3d 17 85 43 be c4 ad 5e 3d
       0.15799396 0.074253894 -0.19093738 0.054364935
000200 46 a9 16 3e ae 19 28 3d 36 b5 f9 3d 24 b1 4b 3d
       0.1471301 0.041040115 0.12192766 0.04972948
000210 f3 cf b7 bd 5c e9 a8 bc e5 94 a8 3d 31 4b 2f be
       -0.0897521 -0.020619087 0.082315244 -0.17118527
000220 51 95 4d 3d 72 c8 86 bd a1 86 4a 3d 02 8d 17 be
       0.050191227 -0.06581201 0.0494448 -0.14799884
000230 cc 09 fd 3d 80 f0 35 be 3b 62 c4 bd d7 db 31 3e
       0.12355384 -0.17767525 -0.095890485 0.17369018
000240 ef 42 4c 3e 25 d3 37 3e 2a 7e 1e be 93 cd 1c 3e
       0.19947408 0.17951639 -0.15477815 0.15312795
000250 56 fd 32 3e 89 9a 98 3d 90 ee ad 3d f8 23 18 3e
       0.17479452 0.0745135 0.08492768 0.14857471
000260 42 9d 14 3e e9 e4 2d bc b7 34 84 bd 62 73 56 3e
       0.14513114 -0.010613658 -0.06455367 0.20942453
000270 4b ae 1c be 1b 47 4f 3e 50 4d 56 be 70 2a 0e 3d
       -0.15300862 0.20241968 -0.2092793 0.03470844
000280 86 4c 94 3d e7 e4 e9 bd 9e b8 ec 3d b4 16 fe bd
       0.07241158 -0.11420613 0.115586504 -0.12406674
000290 55 a6 9d bd fb 53 d9 3d 42 ad 33 be ab db 89 be
       -0.07697741 0.10611721 -0.17546561 -0.26925406
0002a0 79 ff 43 3c 9d 2f 29 3c 08 84 01 bd 1f d9 fc bd
       0.011962765 0.010326293 -0.031620055 -0.123461
0002b0 63 14 01 3e 27 ea 54 3e 2d 47 7b be cf 7e 07 3e
       0.12605433 0.20792447 -0.2453887 0.13231967
0002c0 66 8e 1d bb 65 5a a3 3c ab 36 44 bd 10 e5 1f be
       -0.0024041175 0.019940564 -0.047903698 -0.15614724
0002d0 14 6f 33 bd 12 10 b0 3d e3 44 25 bd 9c 8d 0d be
       -0.043807104 0.08596815 -0.0403489 -0.13823551
0002e0 0f ed 59 be 09 02 ea 3d 94 6a b3 3d de 93 14 3d
       -0.21281837 0.114261694 0.087605625 0.03627383
0002f0 c4 67 11 3e 13 cf 91 3d a0 f6 55 bd 07 e7 e5 3d
       0.1419974 0.071195744 -0.052237153 0.112257056
000300 39 27 0f 3e 35 df 8f 3d 9e 6b 96 3d b0 12 df 3d
       0.13979806 0.07024995 0.07344745 0.10892236
000310 c1 06 2b 3d cb 05 0d be c4 16 d5 bd 70 02 51 3e
       0.041754488 -0.13771741 -0.10404733 0.20411086
000320 26 ff a0 3d d8 60 30 3e 61 ae 23 be be 75 ed 3b
       0.07861166 0.17224443 -0.15984489 0.007246702
000330 bc b3 0b bd 69 d2 d9 3c 99 e9 41 3e 69 ee 45 bd
       -0.034106955 0.02658959 0.18936767 -0.04832307
000340 9a c7 58 bd 24 8b 0d be f0 b9 bb 3d ff 42 a0 3d
       -0.05292473 -0.13822609 0.09166324 0.078252785
000350 a9 d2 2f 3e ad 24 47 be 02 02 bb 3d 67 bc 55 bd
       0.17170204 -0.19447584 0.09131242 -0.052181628
000360 63 93 32 bd 54 f6 63 3c 89 1d f5 3c e4 b2 ed 3d
       -0.04359759 0.01391371 0.02992131 0.11606386
000370 7e dd 26 3d d0 c3 fa 3d 75 ea 80 be 7f 11 ff 3d
       0.040738575 0.122443795 -0.25178877 0.12454509
000380 1b 62 24 bd 2d 1c 50 3e 37 c5 2a be 61 17 bb bd
       -0.040132623 0.20323248 -0.16676794 -0.091353185
000390 0d f2 07 3e 16 9c 2a 3e c5 0a c5 bc 06 7e c5 bd
       0.13275929 0.16661105 -0.024052987 -0.09643178
0003a0 64 fb 43 3d 41 75 2f be 39 15 96 bb cc b8 31 3e
       0.047847167 -0.17134573 -0.0045801667 0.1735565
0003b0 37 32 31 3e c8 23 04 be bb 17 3b be b5 fc 05 be
       0.17304312 -0.12904274 -0.18270771 -0.13084681
0003c0 b2 84 29 3e 9d aa 3d 3d 84 81 09 3d d9 bc 57 bc
       0.16554525 0.046305288 0.03357078 -0.013167583
0003d0 c5 3d ec 3d 55 f0 45 bb a3 e9 f4 3c 9e 89 c4 bc
       0.11535219 -0.0030203064 0.029896563 -0.023991402
0003e0 a4 af 3e 3e 5e b5 8f bb 3e e1 77 3e 13 04 5a 3c
       0.18621689 -0.0043856343 0.24207017 0.013306635
0003f0 49 f4 06 3e c8 9c 0c be 65 82 77 3e 65 8d 84 bd
       0.13179125 -0.13731682 0.24170835 -0.06472281

dnn/hiddenlayer_1/MatMul f4 [64, 128]
000000 42 66 d8 bc 94 3b e0 3d f6 3d 16 bd b2 9f df 3c
       -0.026415948 0.109488636 -0.036680184 0.027297828
000010 66 5b fa 3c 04 8a 08 3e 0c a6 aa bc 8e 45 17 be
       0.03056116 0.13333899 -0.02083113 -0.14772627
000020 3e 45 00 3d 3f b3 1f 3e 09 f3 10 be d9 c9 14 3e
       0.031316034 0.1559572 -0.1415521 0.14530124
000030 5f e8 dc 3d b6 ea 62 bd cc d1 a6 bc 7e 5f 19 be
       0.10786509 -0.05539962 -0.02036371 -0.14977834
000040 53 ef 31 3e 88 89 1d 3d 40 a1 a8 3d 2b d3 6e 3c
       0.17376451 0.03846124 0.08233881 0.014576714
000050 25 b5 2e 3e f6 bb 25 be 4a 48 15 3e 04 23 fc bd
       0.17061289 -0.16184983 0.14578357 -0.12311366
000060 bf 96 55 bd 7b 3d 14 be 20 f5 cd bc 51 e0 07 3e
       -0.052145716 -0.14476578 -0.025141299 0.13269164
000070 2c e3 b4 3d 4c 33 f0 3d 5d 0e b9 bd 72 44 01 bc
       0.08832392 0.11728534 -0.09035943 -0.007889854
000080 1f 4f 89 3d d8 9e e0 3d 95 b9 21 3e 75 14 8f bd
       0.06704544 0.10967797 0.1579345 -0.06986324
000090 db bb ee 3c 8b 24 1f be 15 76 e2 bc bf b9 c8 bd
       0.02914231 -0.15541284 -0.027644197 -0.09801053
0000a0 7a f7 aa bd 71 72 53 bd 5a 83 da 3d 32 5e e5 3d
       -0.08347984 -0.05162281 0.106695846 0.11199607
0000b0 94 e4 aa 3b b7 e6 29 3e 71 41 31 3e 41 83 d5 bd
       0.005215237 0.16591917 0.1731012 -0.10425425
0000c0 03 e7 aa 3c ac 90 c2 bd 58 76 82 3d 7f 83 1c be
       0.020862108 -0.0950025 0.063702285 -0.15284537
0000d0 eb c7 c9 bc 7c 20 e9 bc e0 69 e2 bc c5 9c ab 3b
       -0.024631461 -0.028457873 -0.027638376 0.0052371942
0000e0 44 dd d5 3d 63 69 11 3d f2 b3 0a be 8d 35 ff 3d
       0.10442594 0.035500895 -0.13545206 0.12461386
0000f0 bb 3a 2a be ae c4 b0 39 a1 22 32 be 01 37 af bd
       -0.16623966 0.00033715874 -0.17396022 -0.08555413
000100 f0 e4 c2 bd d0 60 ec 3d 9d a8 ab 3c 66 61 f4 3d
       -0.095163226 0.11541903 0.020954425 0.1193264
000110 5f a7 51 3d 20 21 a7 bd 20 cf de bd 06 55 ac bd
       0.05118501 -0.08160615 -0.1087935 -0.084146544
000120 e4 01 25 be e3 e2 df 3c 92 fe 0f 3d ed b0 4a 3d
       -0.16114002 0.027329868 0.035154887 0.049485136
000130 4c 83 c8 3d b1 3e 28 bd 3d af 0a be 0d c9 4b bd
       0.09790668 -0.041075412 -0.1354341 -0.049752284
000140 7f 39 2e 3e 3d 63 24 3e cc fa c0 bd b7 cd 3d bd
       0.1701412 0.16053481 -0.09422836 -0.046338763
000150 bf c9 71 3d 9c 1a 9c 3d a2 79 e4 bd 4e 8c 2c 3e
       0.05903029 0.07622263 -0.11156012 0.16850397
000160 dd ae 91 3d 01 9c d7 bc c3 1c 33 3e f8 e7 25 3e
       0.07113431 -0.026319506 0.1749144 0.1620177
000170 cb 53 f0 3c a7 ff 89 bb 10 2b 00 3e b5 77 dc 3d
       0.02933683 -0.0042113843 0.12516427 0.1076502
000180 f5 c3 f9 bc f6 96 9e 3d 1c 24 95 3d 79 5a b1 bc
       -0.030488947 0.07743637 0.07282278 -0.021649586
000190 31 1d 23 be 6e cd 37 be 7b 7f 99 3d 0c 16 55 3d
       -0.15929104 -0.17949459 0.07495018 0.05202298
0001a0 eb fa 25 be 85 f1 15 be 87 4e 26 3e db 0d 88 3c
       -0.16208999 -0.14642914 0.16240893 0.01660817
0001b0 b1 32 0c be 3c c7 f4 3d ab 32 de 3d 54 39 18 be
       -0.13691212 0.119520634 0.10849508 -0.14865619
0001c0 1a d0 f7 bd ca 07 2e 3e 2f bf fb b8 0d e6 4b 3d
       -0.12100239 0.16995159 -0.000120042234 0.04977994
0001d0 20 e3 11 be 75 c3 2d be 8f c3 42 3d 4c d4 1c be
       -0.14246798 -0.16969092 0.04754978 -0.1531536
0001e0 57 f9 a5 bd 93 f8 9a bc d7 b1 42 3d 1f f1 48 3c
       -0.081041984 -0.018917358 0.047532883 0.012264519
0001f0 78 31 da bd f1 75 0c 3e 3e b4 05 3e 7f c7 05 be
       -0.10653967 0.13716866 0.13057038 -0.13064383
000200 fa cf 8a bd 04 86 aa 3d 27 88 95 3d 5b 5c 39 bb
       -0.0677795 0.08326343 0.073013596 -0.0028283808
000210 4e 9d de 3d 6e 38 4d bd cd fa 1d be 68 bd d7 3b
       0.10869847 -0.050102644 -0.15427704 0.0065838583
000220 27 e9 00 be 86 a8 eb bd f1 bd 0b 3e b7 0e 3f 3e
       -0.1258894 -0.11506753 0.13646676 0.18657957
000230 ce 54 ea 3d 11 48 51 bd 38 d0 23 be 1c f2 e2 3d
       0.114419565 -0.05109412 -0.15997398 0.11081335
000240 8b fb 0a be ae 01 0e 3d cc 16 1a be c0 30 89 bd
       -0.13572519 0.03466957 -0.15047759 -0.066987514
000250 de 3c 15 3e 9c f4 f0 3d ff 8e d5 ba a9 51 09 3d
       0.14574 0.117654055 -0.0016293227 0.033525143
000260 6e 15 3a 3d 44 ce d9 3c 1d dd 58 3d 2f e1 d0 bd
       0.045430593 0.026587613 0.052945245 -0.101992
000270 7f bd c8 3d f6 2a a5 bd e9 1c c0 bd e8 43 8e 3c
       0.098017685 -0.08064835 -0.09380514 0.017366365
000280 9f 9e 2c 3d 0d 04 1f be d8 25 22 3d 24 1c c1 3b
       0.04214346 -0.15528889 0.03958687 0.005893247
000290 2f d1 38 3e 4d 42 fd bd 87 af b5 3d ba f5 a8 bd
       0.18048547 -0.123661615 0.0887137 -0.082499936
0002a0 b1 5e 45 bc 5f f1 29 be 9d 41 67 3d 76 0a 62 3d
       -0.012046502 -0.16595982 0.056459058 0.055185758
0002b0 f7 02 07 be 9d f9 53 bc 95 92 ed bd d1 9d f2 3d
       -0.13184725 -0.01293793 -0.11600224 0.11846507
0002c0 05 c8 0e 3e 80 ca 0f be a5 3d cc bd 74 01 d0 3c
       0.13943489 -0.14042091 -0.09972695 0.025391318
0002d0 69 09 77 bc 29 36 bb 3d bf 09 38 be ed 1a ac bc
       -0.015077927 0.091411896 -0.17972468 -0.021008933
0002e0 bc 50 84 3d 86 ed e8 bc 76 86 b7 bd 54 6b 94 bc
       0.06460711 -0.028433573 -0.08961193 -0.018117584
0002f0 dd 4e 14 3d 13 f8 67 3d 92 39 b0 3d 8d 7b 04 3e
       0.036208022 0.056633066 0.08604731 0.12937756
000300 1c 05 cb 3d 85 3e d0 bd 87 c3 b4 bb ce fc c4 bd
       0.09913084 -0.10168175 -0.0055164727 -0.09618531
000310 9e 57 27 bd 47 14 e3 3d 24 c2 46 bd f0 16 12 3e
       -0.040855043 0.11087852 -0.04852499 0.14266562
000320 a9 55 1c bd 7d 10 2b 3e 2b 54 02 3d da fe 99 bd
       -0.03816763 0.16705509 0.03181855 -0.07519312
000330 6c 83 f5 bd 5f e7 09 be f2 bc 13 3e 2b 51 00 3d
       -0.11987957 -0.13467167 0.14427546 0.031327408
000340 16 9e 2f be 6e d6 da bd 7d 7a 1f 3e 91 37 5f 3d
       -0.17150149 -0.106854305 0.1557407 0.05449635
000350 24 dd 6d 3d 18 95 0a 3e b8 b3 4b 3d 02 60 22 3e
       0.058072224 0.13533437 0.04973194 0.15856937
000360 d8 65 0f 3d 05 14 33 bd b4 ab b9 3d 98 74 1a 3d
       0.035009235 -0.043720264 0.09065953 0.03770885
000370 2a 70 18 be 3e 9c 86 3d 54 45 9a bd 66 2c a3 3d
       -0.14886537 0.065727696 -0.075327545 0.07967453
000380 1c 95 36 bc 02 59 1a be bf 6f 51 3d f2 69 33 be
       -0.011143949 -0.15073016 0.05113196 -0.17520884
000390 91 21 cf 3d 43 1b 2d 3e e6 2d 03 3e 3f 5c e0 3c
       0.10113824 0.16904931 0.12810478 0.027387736
0003a0 00 42 d9 3d 03 c5 4b 3d ac ea 43 3e 1e 78 68 3c
       0.106082916 0.049748432 0.19132489 0.014188794
0003b0 f8 34 f6 bd 2e c5 83 3d e5 dc 1e be e7 0c 46 3e
       -0.12021822 0.064340934 -0.15513952 0.1934086
0003c0 40 84 ac 3d 4f aa 15 3e 32 54 d1 3d 4a 9b 97 3d
       0.08423662 0.14615749 0.10221137 0.07402666
0003d0 fd 07 20 bd 5c 53 38 bc bc e1 f5 3d 53 96 e3 bd
       -0.03907012 -0.011250343 0.12005946 -0.111126564
0003e0 d5 e9 45 bd 9e 51 47 bd 12 02 2e be 2f 87 46 3d
       -0.048318703 -0.04866182 -0.16992977 0.048468765
0003f0 ee 2e b3 3d da 24 25 3e ac 3e 0a bd 87 2a 9f 3d
       0.087491855 0.16127339 -0.033751175 0.07771783

dnn/logits/MatMul f4 [1, 64]
000000 d7 ff 01 bc 17 89 89 be ac e7 9c 3e ea 82 7f be
       -0.007934532 -0.26862404 0.30645502 -0.24952284
000010 80 2c 9f be 3a 69 e9 bd d5 00 67 be 99 01 d4 3e
       -0.31088638 -0.113970235 -0.22558911 0.4140747
000020 db c1 bb be b9 18 80 be 86 91 3d be df 76 da be
       -0.36671337 -0.25018862 -0.18512544 -0.42668816
000030 89 20 89 be 0f 81 12 be bd 74 82 3d 0c a3 9f 3e
       -0.26782635 -0.14307044 0.06369922 0.31179082
000040 b0 17 af be 6c 78 a2 be 98 59 54 3e 7b 77 94 3e
       -0.3419776 -0.317325 0.20737302 0.28997406
000050 77 19 b2 3d 17 77 f2 3d ab 60 1c be 6d cf 22 3e
       0.08696263 0.11839121 -0.15271251 0.15899439
000060 40 3d 1d 3e 58 dd b7 3e 0c 9e 44 3e 7b 48 42 3e
       0.15355396 0.3591106 0.19200915 0.18972962
000070 b2 2c da 3d 70 6a 65 be 3c 76 34 be 39 43 b4 3e
       0.10653056 -0.22403884 -0.17623228 0.35207537
000080 fc 51 b5 3d ff f4 d2 3d 76 1e 73 be 2f 15 ca 3e
       0.08853528 0.103006355 -0.23742089 0.39469287
000090 23 d1 c3 3c 15 95 ba 3e 09 a7 dd 3e 02 58 af 3e
       0.023903435 0.36441866 0.432915 0.34246832
0000a0 16 79 d7 bd 4a 41 9a bd bb 81 04 bd b1 71 b0 bd
       -0.10521142 -0.07531984 -0.032350283 -0.08615435
0000b0 7d 1a 23 3c 12 dd 27 3d 40 9b 6d be 1b a7 85 be
       0.009955046 0.040982313 -0.23203754 -0.26104054
0000c0 a7 19 4d be 93 71 af be 0b c2 7f be f7 4d a6 3e
       -0.20029317 -0.34266338 -0.24976365 0.32481357
0000d0 e3 b7 02 3e 42 e1 96 be b1 8a 93 3e f2 48 b2 bd
       0.1276546 -0.29468733 0.2881675 -0.087053195
0000e0 3c 8c cb 3c 60 81 21 3e 33 61 5f be 56 03 16 3e
       0.024847142 0.15772009 -0.21814422 0.1464971
0000f0 ea 58 aa bd 88 62 89 3e e1 ad 15 3e 2e da 01 be
       -0.0831774 0.26832986 0.14617111 -0.12680885
