网络/Data_Backup/Default/optimization_guide_prediction_model_downloads/1d65ff58-c693-4f0e-8211-19ae947b86a7/model.tflite (tflite, 67216 bytes, 5 tensors)

dnn/hiddenlayer_1/bias/part_0 f4 [64]
0.020183548 0.08742598 -0.0085985735 0.027689576 0.07933705 0.028771512 0.08360718 -0.00046613943
-0.043073114 -0.01344503 0.0031268026 -0.024673108 0.111194625 -0.028719423 -0.0052229646 -0.00926833
0.05818097 0.06977702 0.06703453 0.01730672 -0.0031132048 -0.06516566 0.09702284 -0.033306025
-0.007126989 0.012870179 0.13147217 0.00047740625 -0.010694122 0.110686235 0.06384318 0.07126533
-0.03652588 0.015700772 -0.008021966 0.022197882 0.030204328 -0.020814631 -0.05433487 -0.062646896
-0.0024664577 0.0017140605 -0.041931573 0.117861025 -0.04948138 0.031569216 0.068708055 -0.009101863
0.033514176 -0.029500114 -0.055607606 -0.00079009385 -0.039257415 -0.0016467874 0.09723002 -0.0032922116
0.0017861066 -0.057837553 -0.013788834 -0.057952106 -0.0225402 -0.02015108 0.07044953 0.020395283
00000000: f857 a53c 640c b33d 08e1 0cbc 40d5 e23c
00000010: 777b a23d 3cb2 eb3c 3e3a ab3d 2d64 f4b9
00000020: 6f6d 30bd 8b48 5cbc 0beb 4c3b 421f cabc
00000030: 02ba e33d ff44 ebbc 6725 abbb 32da 17bc
00000040: 2b4f 6e3d 41e7 8e3d 6649 893d d3c6 8d3c
00000050: e906 4cbb 9375 85bd e9b3 c63d e66b 08bd
00000060: 8489 e9bb 71dd 523c a4a0 063e 624c fa39
00000070: 6636 2fbc 77af e23d 37c0 823d 8ff3 913d
00000080: 299c 15bd e89e 803c 906e 03bc 55d8 b53c
00000090: 116f f73c 7283 aabc 3e8e 5ebd 044d 80bd
000000a0: 4ba4 21bb 54aa e03a 71c0 2bbd 1f61 f13d
000000b0: fdac 4abd b94e 013d cfb6 8c3d fb1f 15bc
000000c0: 2946 093d 39aa f1bc cdc4 63bd 4d1e 4fba
000000d0: 62cc 20bd 04d9 d7ba 8820 c73d 25c2 57bb
000000e0: cb1b ea3a 12e7 6cbd 90ea 61bc 305f 6dbd
000000f0: 3aa6 b8bc e113 a5bc d847 903d 0214 a73c

dnn/hiddenlayer_0/bias/part_0 f4 [128]
-0.0054844623 0.06116678 0.0112065915 0.09857423 0.006140742 -0.006472145 -0.04232913 -0.038907718
-0.05728265 0.0966881 0.02871635 0.020146847 0.061021764 -0.03552794 0.054578163 -0.06671757
-0.20810917 0.031998992 0.030488655 -0.024924763 0.07949327 -0.03290245 0.032732796 -0.013474727
0.027963791 -0.043733627 0.04298493 0.03725931 -0.007322486 0.12058509 -0.0494192 -0.033101995
0.046847373 0.07253527 -0.06955534 0.11955372 0.014366287 0.0030192682 -0.011880732 0.020081658
-0.030081317 -0.076396205 0.08955735 -0.025678331 0.0050956695 -0.13601308 -0.027572582 0.009282684
-0.01491121 -0.079573855 0.015545587 -0.023555486 -0.010338863 -0.08086492 -0.018569151 -0.03916532
0.025551118 0.037491493 -0.030118393 -0.05194097 -0.010520893 -0.07806198 0.054765675 -0.032963894
-0.044678092 0.02191603 -0.048161667 -0.0066274903 -0.0055839615 -0.016870461 0.03564303 0.021976287
0.029310368 0.12589666 0.026705777 -0.059350483 -0.007301058 0.013376899 0.038722925 -0.041058693
-0.0063510872 0.025418704 0.12973244 0.040091086 -0.025675777 0.02778765 0.047232892 -0.1464815
-0.059366502 0.06024811 0.06082319 -0.009556989 0.07651397 0.01191185 0.031967837 -0.07139466
0.027825104 0.048969727 -0.07816347 0.009579145 0.06620718 -0.03574354 -0.014252569 -0.055377133
0.007005736 0.009625373 0.035250627 -0.014648958 -0.027913881 -0.013295932 0.03645756 0.0115853995
0.0341335 0.087328374 0.020250306 0.030256419 0.033756323 0.010258621 -0.010759161 -0.20357837
0.10556996 -0.03200507 -0.0064063724 0.043408424 -0.03586948 0.029874144 -0.040440448 0.06267707
00000000: 01b7 b3bb 048a 7a3d da9b 373c 49e1 c93d
00000010: 4738 c93b 4a14 d4bb 4f61 2dbd b35d 1fbd
00000020: 36a1 6abd 6904 c63d 8d3e eb3c 000b a53c
00000030: f5f1 793d bf85 11bd 5a8d 5f3d 39a3 88bd
00000040: 921a 55be 6011 033d 58c3 f93c 042f ccbc
00000050: 5ecd a23d b8c4 06bd d312 063d 1ac5 5cbc
00000060: 5214 e53c 0822 33bd f710 303d 389d 183d
00000070: 77f1 efbb 51f5 f63d c96b 4abd f595 07bd
00000080: 08e3 3f3d 5f8d 943d 0873 8ebd 95d8 f43d
00000090: 9360 6b3c eade 453b 67a7 42bc 4a82 a43c
000000a0: 186d f6bc 9d75 9cbd d869 b73d 5d5b d2bc
000000b0: 93f9 a63b 0347 0bbe e5df e1bc 6616 183c
000000c0: 264e 74bc 9ef7 a2bd ebb2 7e3c 6ff7 c0bc
000000d0: 5664 29bc 829c a5bd 551e 98bc d16b 20bd
000000e0: 9450 d13c ae90 193d d9ba f6bc 0ec0 54bd
000000f0: d35f 2cbc f6de 9fbd f951 603d 2605 07bd
00000100: 6000 37bd 3f89 b33c 2b45 45bd 6b2b d9bb
00000110: aaf9 b6bb ec33 8abc 6dfe 113d 9d07 b43c
00000120: 4c1c f03c 0eeb 003e 13c6 da3c 7e19 73bd
00000130: b73d efbb c82a 5b3c ee9b 1e3d 292d 28bd
00000140: c81c d0bb e33a d03c 95d8 043e 8d36 243d
00000150: 0256 d2bc eda2 e33c 4777 413d 3fff 15be
00000160: 4a2a 73bd b9c6 763d bd21 793d eb94 1cbc
00000170: 5bb3 9c3d ec29 433c b5f0 023d 5d37 92bd
00000180: 79f1 e33c 7b94 483d 2b14 a0bd d9f1 1c3c
00000190: a197 873d d167 12bd 9b83 69bc 22d3 62bd
000001a0: 6090 e53b beb3 1d3c f662 103d 2f02 70bc
000001b0: a7ab e4bc 2ed7 59bc 8654 153d b0d0 3d3c
000001c0: 92cf 0b3d 38d9 b23d f8e3 a53c 4fdc f73c
000001d0: 1244 0a3d c613 283c 3147 30bc d976 50be
000001e0: 1035 d83d c017 03bd 8cec d1bb 08cd 313d
000001f0: e0eb 12bd 9fba f43c e2a4 25bd d65c 803d

dnn/hiddenlayer_0/MatMul f4 [128, 12]
-0.26906025 0.1989833 0.23205431 -0.15616183 0.03150397 0.0034042594 -0.100374565 -0.03337909
0.03803759 -0.06357789 -0.09644854 0.0494711 0.0038359927 0.06882772 -0.036174152 -0.15596755
0.164133 0.21842396 -0.14767015 -0.027283145 0.008336051 -0.12763223 -0.17914829 0.16587666
0.1524413 -0.08333261 0.067858145 -0.0381219 -0.0009020361 -0.15762967 0.025958586 -0.12329102
-0.21869731 -0.004756423 0.09174286 0.18936914 -0.21349515 0.011434312 0.0054217987 0.15785822
-0.09884533 0.14954112 -0.1664631 -0.10907743 -0.073444724 0.16980183 0.2035226 0.07376331
0.09448732 0.15645464 -0.02912717 0.10792638 0.11510446 0.13397415 -0.21001515 0.26208398
-0.03563077 0.13693531 -0.02954976 0.2429991 -0.038477935 0.04390831 -0.14165534 0.22127487
-0.018202031 -0.12047112 0.152154 -0.036139503 -0.14539218 -0.016830873 0.10137063 0.08390751
-0.0070312773 0.074825086 0.11559609 0.022015171 0.06719036 0.108484216 0.069968715 0.1603046
-0.10851219 0.14842725 -0.23293474 -0.011567709 -0.011365752 -0.11395946 -0.10211827 -0.111836046
0.11839535 -0.09637856 -0.058197975 -0.10921082 -0.073044546 0.19221333 -0.020726422 -0.19549918
-0.012483934 0.1456459 -0.12650958 -0.08552757 -0.10563894 0.101958394 -0.010388203 -0.1744302
0.0892696 0.12420883 -0.013809364 0.0697531 0.17425177 -0.09670918 0.011624598 -0.1658487
-0.12945463 -0.13144547 0.014549415 0.08561881 -0.13169983 0.028113117 -0.07696902 0.2790957
0.16210188 -0.056034427 -0.09262718 -0.048484962 -0.0593475 0.08979081 0.15048602 -0.05142756
-0.014487146 -0.15649451 0.21821578 -0.027748702 0.009562989 0.1963681 -0.21371827 -0.0028156755
0.16530481 0.045244172 0.05866384 0.18195567 -0.17917769 0.039629366 -0.1116779 0.22724609
0.084072284 0.030697947 0.12252997 0.03522613 -0.070414536 -0.15872657 0.06665533 0.11983285
0.037239306 0.12931764 0.24250896 0.22928584 -0.102455534 -0.09802873 0.05406525 -0.013546708
-0.06680019 -0.067801 -0.16842292 0.050865073 -0.12445953 -0.16072686 0.049922913 -0.089556545
-0.037738252 0.030731106 -0.0917412 0.09160866 -0.18098487 0.07581171 -0.06817324 -0.04895178
0.015864875 0.16266179 0.0051920065 0.08203668 -0.06621985 0.13481656 0.02894916 -0.10124339
-0.097716674 -0.24672091 0.08861064 0.021616627 0.20938809 0.082820505 -0.111460075 -0.17442629
0.17217928 0.10847026 -0.3346442 0.053516 -0.025910778 -0.063685894 -0.19918126 0.02679279
0.023627264 0.0062422203 -0.09942705 -0.10237332 -0.053591903 -0.14035992 0.035064153 0.14170377
-0.03227614 0.022703256 0.07261186 0.021010982 0.1499358 0.14311717 0.07239455 0.11136432
-0.087813385 -0.18249032 0.2752942 -0.08699886 -0.039688118 0.05183482 0.14279452 -0.044208787
-0.02781241 -0.08790878 0.2166124 0.14627075 -0.030672057 0.17634946 -0.15709324 0.101113155
0.16878939 0.13544558 0.07147253 -0.19450873 0.15597323 0.22758955 0.11320002 -0.1561315
-0.12697595 0.038794756 0.010311603 0.101387486 -0.12403631 -0.19270502 -0.13919188 -0.065973006
-0.059919376 -0.036327228 0.18747099 0.28524 -0.05504618 0.011011304 0.025703294 0.02319556
00000000: 44c2 89be 47c2 4b3e a59f 6d3e e3e8 1fbe
00000010: 4f0a 013d ff19 5f3b 2e91 cdbd 83b8 08bd
00000020: 4ecd 1b3d 2035 82bd d086 c5bd 35a2 4a3d
00000030: 4765 7b3b 8cf5 8c3d 592b 14bd f5b5 1fbe
00000040: 7b12 283e 88aa 5f3e d836 17be e780 dfbc
00000050: ef93 083c 06b2 02be a672 37be 92db 293e
00000060: 9219 1c3e 4aaa aabd 36f9 8a3d b625 1cbd
00000070: 9e76 6cba ac69 21be 1aa7 d43c 0180 fcbd
00000080: 30f2 5fbe c5db 9bbb aee3 bb3d fce9 413e
00000090: 799e 5abe fb56 3b3c 58a9 b13b 96a5 213e
000000a0: 6c6f cabd 4f21 193e 4e75 2abe fd63 dfbd
000000b0: 306a 96bd 88e0 2d3e 3a68 503e 3811 973d
000000c0: 9182 c13d a535 203e 1a9c eebc 8208 dd3d
000000d0: e3bb eb3d 8530 093e 360e 57be df2f 863e
000000e0: 92f1 11bd c538 0c3e 5712 f2bc c2d4 783e
000000f0: 0a9b 1dbd 33d9 333d 190e 11be e195 623e
00000100: 6d1c 95bc 90b9 f6bd 42ce 1b3e 0407 14bd
00000110: b0e1 14be e6e0 89bc 689b cf3d b3d7 ab3d
00000120: a166 e6bb e53d 993d a5bd ec3d 2959 b43c
00000130: 199b 893d f92c de3d c24b 8f3d e426 243e
00000140: a43b debd 50fd 173e 7286 6ebe 7d86 3dbc
00000150: 6b37 3abc 9463 e9bd 6223 d1bd 4c0a e5bd
00000160: 4379 f23d 1f62 c5bd 0061 6ebd eca9 dfbd
00000170: 6198 95bd 92d3 443e 75ca a9bc f030 48be
00000180: 6a89 4cbc 3324 153e ba8b 01be 1429 afbd
00000190: 3b59 d8bd 90cf d03d 4833 2abc d59d 32be
000001a0: fbd2 b63d 3361 fe3d ac40 62bc b7da 8e3d
000001b0: 0e6f 323e 760f c6bd 1975 3e3c 3ed4 29be
000001c0: c18f 04be a499 06be ab60 6e3c ea58 af3d
000001d0: 52dc 06be 7b4d e63c efa1 9dbd a2e5 8e3e
000001e0: 09fe 253e 5b84 65bd 52b3 bdbd 2b98 46bd
000001f0: 5d16 73bd 3fe4 b73d 0219 1a3e b5a5 52bd
00000200: 7f5b 6dbc 1940 20be f573 5f3e 3f51 e3bc
00000210: 15ae 1c3c b814 493e f6d8 5abe 3287 38bb
00000220: aa45 293e f451 393d 7f49 703d 9652 3a3e
00000230: 5b7a 37be 6752 223d 62b7 e4bd 33b3 683e
00000240: 172e ac3d 437a fb3c fef0 fa3d 4649 103d
00000250: 7f35 90bd 3889 22be 9782 883d ed6a f53d
00000260: 3e88 183d d86b 043e 4554 783e e8c9 6a3e
00000270: 35d4 d1bd 49c3 c8bd 8673 5d3d 03f3 5dbc
00000280: 8ace 88bd 40db 8abd 0f77 2cbe e557 503d
00000290: a3e4 febd 9595 24be f87b 4c3d 6c69 b7bd
000002a0: 6d93 1abd cdbf fb3c cfe2 bbbd 529d bb3d
000002b0: 1954 39be 2b43 9b3d 699e 8bbd a981 48bd
000002c0: 0ef7 813c d090 263e b521 aa3b d902 a83d
000002d0: 469e 87bd 5a0d 0a3e ca26 ed3c b258 cfbd
000002e0: ae1f c8bd 68a4 7cbe 7f79 b53d 5a15 b13c
000002f0: d569 563e cc9d a93d 2e45 e4bd ce9c 32be
00000300: c44f 303e a825 de3d 7c56 abbe 9833 5b3d
00000310: d742 d4bc c06d 82bd 2cf6 4bbe 8e7c db3c
00000320: f78d c13c 8a8b cc3b 69a0 cbbd 1aa9 d1bd
00000330: 2f83 5bbd 83ba 0fbe 6e9f 0f3d cb1a 113e
00000340: fc33 04bd 2efc b93c 87b5 943d 391f ac3c
00000350: c588 193e 4f8d 123e 9843 943d fa12 e43d
00000360: 81d7 b3bd bede 3abe 5df3 8c3e 752c b2bd
00000370: 0290 22bd c050 543d ba38 123e 4614 35bd
00000380: dad6 e3bc 8509 b4bd a4cf 5d3e 00c8 153e
00000390: f743 fbbc f494 343e 0ddd 20be 6a14 cf3d
000003a0: 20d7 2c3e 3fb2 0a3e 3160 923d 4c2d 47be
000003b0: 72b7 1f3e 3c0d 693e 69d5 e73d f0e0 1fbe
000003c0: fc05 02be 40e7 1e3d fff1 283c 3ea4 cf3d
000003d0: c006 febd 7754 45be 5188 0ebe db1c 87bd
000003e0: 056e 75bd dccb 14bd 65f8 3f3e fa0a 923e
000003f0: 1a78 61bd c268 343c b78f d23c 9d04 be3c

dnn/hiddenlayer_1/MatMul f4 [64, 128]
-0.10658865 -0.16903703 -0.123253815 -0.017836405 0.13710454 -0.0077880705 -0.14374496 0.0046523483
-0.16603221 -0.07467312 -0.13553125 0.1813344 0.00031311062 0.08835845 -0.012517689 0.08676745
-0.0702582 -0.118198864 0.0105599435 -0.13189393 0.16905119 -0.0623938 0.16871281 0.01408681
0.00044698696 -0.06389742 0.076883174 -0.049084987 -0.045005947 0.09134321 -0.14076178 -0.10176926
-0.014724143 -0.049400423 -0.15687303 -0.025451675 -0.101994 -0.10065499 0.096945666 0.071176164
-0.060593396 -0.099616826 0.06145498 0.14078468 -0.024044234 -0.029881783 -0.09978646 -0.011607504
-0.02448818 0.08606739 0.08562545 -0.18504855 0.11871979 0.041374963 -0.15141632 0.024378687
-0.05665293 -0.12301702 -0.01648155 0.037086375 -0.12981789 -0.08116618 0.044183392 0.14865437
-0.08366739 -0.11232106 0.017009262 -0.1222159 0.06250199 -0.016585039 0.0240765 0.08794745
0.10833617 -0.06313737 0.18501775 0.17662443 0.105308786 0.08811891 0.06366359 -0.11758236
-0.13362597 -0.13897818 -0.0515397 0.090971716 0.068732 -0.04729144 0.03729531 0.1436183
0.061201077 -0.043485146 -0.09133457 0.1491573 0.046145126 -0.06416294 -0.11236008 -0.10993645
-0.03866285 -0.13574651 0.1683033 0.09889029 0.089561194 -0.032133028 0.035537593 0.07663665
0.11066509 -0.10965829 0.03770377 -0.0037647327 -0.17153059 -0.117141336 0.054976434 0.10414537
0.022890864 0.17354868 0.14568913 0.078816384 -0.0034522475 -0.12868404 -0.019468779 -0.05876667
-0.08099744 0.14236425 -0.023067916 -0.03506634 0.07391869 0.05130157 0.12643635 -0.058554754
0.021777267 0.0740829 0.025485927 0.18211737 0.13222629 -0.105579704 0.026241222 -0.06502707
0.07910327 0.17753929 0.08936914 0.07768378 0.15842617 -0.05161903 -0.030398153 -0.11388066
0.14822452 0.09451719 0.10558296 -0.12894702 0.18940388 -0.0063657383 0.12949306 0.14194357
0.13654864 -0.09871376 0.16220574 0.13226461 -0.07902913 -0.012583383 -0.01790228 0.17426741
0.042832825 0.17220038 0.08418771 -0.05215935 0.18748917 0.05466467 0.101176634 0.14826141
-0.18112396 -0.17666656 0.16840088 -0.16179362 0.016763799 0.12219904 0.10334384 0.14106378
0.0729814 0.101241134 -0.05723757 0.043578606 0.14552496 -0.026193453 0.05176925 -0.07428151
-0.034581807 -0.16269115 0.13207093 0.064803615 0.07870167 0.12970224 -0.005721057 -0.100398
-0.08210221 -0.081493184 0.092210956 -0.03290875 0.05001969 0.10764688 -0.11595418 -0.11118357
0.027045306 0.10355023 0.025527317 -0.050218195 -0.13134046 0.007290335 -0.083347894 0.06252376
-0.047907002 -0.043304335 0.16444418 0.031155018 0.11979037 -0.093124084 0.025603574 0.19806586
-0.08804921 0.020324498 0.1340571 -0.06155363 0.10696982 -0.14217997 0.20699963 -0.1364762
0.11620483 0.123753205 0.004112213 0.11185491 0.059867013 0.041889817 0.14332315 0.11266188
-0.01227205 0.07002054 -0.09074491 0.030830573 -0.042160146 -0.049013294 0.14490625 -0.12646547
0.044536423 -0.12646666 -0.098874554 0.08057699 0.088024125 0.13596763 0.17024308 0.26495722
0.12914093 0.20612581 -0.10669849 -0.17562872 -0.12959357 -0.15002356 -0.0666058 -0.011759497
00000000: 264b dabd 0b18 2dbe 7f6c fcbd a71d 92bc
00000010: 2265 0c3e 1233 ffbb e131 13be ba72 983b
00000020: 5904 2abe 39ee 98bd b4c8 0abe baaf 393e
00000030: ff28 a439 46f5 b43d fe16 4dbc 22b3 b13d
00000040: 88e3 8fbd 3f12 f2bd 9d03 2d3c 340f 07be
00000050: c11b 2d3e a490 7fbd 0dc3 2c3e 5dcc 663c
00000060: 9359 ea39 a7dc 82bd ed74 9d3d 570d 49bd
00000070: 2858 38bd 2612 bb3d db23 10be 676c d0bd
00000080: 883d 71bc 1958 4abd 53a3 20be 0880 d0bc
00000090: 3be2 d0bd 3424 cebd 738b c63d cfc4 913d
000000a0: c830 78bd e803 ccbd 38b8 7b3d dc29 103e
000000b0: 6af8 c4bc a4ca f4bc d85c ccbd 672d 3ebc
000000c0: 709b c8bc 1a44 b03d 655c af3d 5e7d 3dbe
000000d0: 5c23 f33d cb78 293d e10c 1bbe d0b5 c73c
000000e0: e70c 68bd 59f0 fbbd 5104 87bc e2e7 173d
000000f0: fbee 04be 743a a6bd a5f9 343d da38 183e
00000100: cf59 abbd 9508 e6bd 0257 8b3c 544c fabd
00000110: 0b01 803d 59dd 87bc 153c c53c cb1d b43d
00000120: 5bdf dd3d 2a4e 81bd 4b75 3d3e 09dd 343e
00000130: 22ac d73d b077 b43d 0e62 823d 05cf f0bd
00000140: 3fd5 08be 4c50 0ebe 4b1b 53bd 614f ba3d
00000150: 5dc3 8c3d abb4 41bd f8c2 183d ad10 133e
00000160: fbad 7a3d 7b1d 32bd 9e0d bbbd b1bc 183e
00000170: ac02 3d3d dc67 83bd 0b1d e6bd 5d26 e1bd
00000180: f05c 1ebd 2201 0bbe b357 2c3e fe86 ca3d
00000190: dc6b b73d ec9d 03bd de8f 113d adf3 9c3d
000001a0: 61a4 e23d 8794 e0bd 456f 1a3d bcb9 76bb
000001b0: b7a5 2fbe cce7 efbd f82e 613d 2b4a d53d
000001c0: 9f85 bb3c bfb6 313e 882f 153e 7c6a a13d
000001d0: 1a3f 62bb c0c5 03be fd7c 9fbc 52b5 70bd
000001e0: fce1 a5bd efc7 113e edf8 bcbc b9a1 0fbd
000001f0: af62 973d 9821 523d 8878 013e 1cd7 6fbd
00000200: 3d66 b23c c7b8 973d ddc7 d03c fa7c 3a3e
00000210: 5466 073e 2c3a d8bd d5f7 d63c ea2c 85bd
00000220: e500 a23d dccc 353e 2b07 b73d ac18 9f3d
00000230: 783a 223e 7a6e 53bd 8c05 f9bc 433a e9bd
00000240: 2bc8 173e 3a92 c13d e13b d83d b00a 04be
00000250: 17f3 413e af97 d0bb d499 043e a859 113e
00000260: 68d3 0b3e 712a cabd 4319 263e 6070 073e
00000270: 06da a1bd 892a 4ebc cda7 92bc 2873 323e
00000280: 7971 2f3d 4c55 303e 9b6a ac3d 0ba5 55bd
00000290: 29fd 3f3e 10e8 5f3d b235 cf3d d7d1 173e
000002a0: 8f78 39be 14e8 34be 4871 2c3e 3aad 25be
000002b0: 3c54 893c 7e43 fa3d efa5 d33d 0673 103e
000002c0: 4677 953d 8357 cf3d f171 6abd 7b7f 323d
000002d0: 7f04 153e a793 d6bc fe0b 543d e820 98bd
000002e0: a7a5 0dbd 8298 26be 9a3d 073e c2b7 843d
000002f0: 572e a13d aad0 043e b477 bbbb 779d cdbd
00000300: 3425 a8bd e6e5 a6bd 19d9 bc3d 53cb 06bd
00000310: 72e1 4c3d f875 dc3d 6379 edbd 36b4 e3bd
00000320: 1e8e dd3c 2512 d43d aa1e d13c 98b1 4dbd
00000330: 1d7e 06be c3e3 ee3b 4db2 aabd 750c 803d
00000340: 223a 44bd e35f 31bd 0e64 283e cf38 ff3c
00000350: a754 f53d d7b7 bebd 96be d13c c7d1 4a3e
00000360: 2553 b4bd 907f a63c 4446 093e a91f 7cbd
00000370: fe12 db3d a097 11be b6f7 533e 6bc0 0bbe
00000380: ccfc ed3d 5272 fd3d bebf 863b 3014 e53d
00000390: 1d37 753d a894 2b3d 4ec3 123e 46bb e63d
000003a0: b510 49bc ee66 8f3d 78d8 b9bd 6690 fc3c
000003b0: 1eb0 2cbd 2ac2 48bd 4e62 143e 2a80 01be
000003c0: d36b 363d 7a80 01be be7e cabd 8d05 a53d
000003d0: fe45 b43d 193b 0b3e 3454 2e3e 79a8 873e
000003e0: 853d 043e a512 533e bd84 dabd 04d8 33be
000003f0: 2db4 04be c79f 19be 9f68 88bd e8aa 40bc

dnn/logits/MatMul f4 [1, 64]
0.111435756 0.3278916 -0.19622758 0.39311618 0.3207988 0.12997314 0.30278644 -0.13800834
-0.029674469 0.052269943 -0.22331713 -0.09318216 0.36329654 -0.31045562 -0.27845547 0.121250935
0.14159758 0.1886724 0.29501015 0.08737486 0.0076517067 -0.19932379 0.26046315 -0.2517347
0.0063875937 0.1748769 0.41627216 -0.1859114 -0.10540754 0.32842228 0.33505073 0.24970527
-0.26805267 0.1215515 -0.02747325 -0.26401928 0.2374678 -0.14156672 -0.1391128 0.15143389
0.14502193 0.06326455 -0.32712424 0.36087143 -0.3005474 0.09789609 0.391844 -0.07115357
0.073733695 0.49150118 -0.18698421 -0.11353535 -0.14819005 -0.011259119 0.2165458 0.026736172
-0.05682986 -0.33581176 -0.32020548 -0.2544168 0.2084105 -0.3370474 0.24986438 0.20777331
00000000: 6e38 e43d 68e1 a73e e2ef 48be 8646 c93e
00000010: be3f a43e ae17 053e d306 9b3e 0f52 0dbe
00000020: df17 f3bc 0219 563d 3fad 64be 4ad6 bebd
00000030: 0102 ba3e 0af4 9ebe b791 8ebe 6952 f83d
00000040: f5fe 103e 5633 413e 920b 973e 97f1 b23d
00000050: 2bbb fa3b 891b 4cbe 6d5b 853e 5fe3 80be
00000060: 054f d13b ee12 333e a021 d53e 8f5f 3ebe
00000070: e9df d7bd f726 a83e c58b ab3e bdb2 7f3e
00000080: 333e 89be feef f83d 950f e1bc 892d 87be
00000090: c22a 733e def6 10be 9673 0ebe 7c11 1b3e
000000a0: a180 143e d890 813d d47c a7be 24c4 b83e
000000b0: 59e1 99be bf7d c83d c79f c83e f7b8 91bd
000000c0: b101 973d 0ba6 fb3e ca78 3fbe 3985 e8bd
000000d0: 22bf 17be 2b78 38bc 2fbe 5d3e d105 db3c
000000e0: 6dc6 68bd 85ef abbe f9f1 a3be eb42 82be
000000f0: 9069 553e 7a91 acbe 73dc 7f3e 87c2 543e
